…
2022-02-02 10:40:15.661504: I tensorflow/core/platform/cpu_feature_guard.cc:142] This TensorFlow binary is optimized with oneAPI Deep Neural Network Library (oneDNN)to use the following CPU instructions in performance-critical operations:  AVX AVX2
To enable them in other operations, rebuild TensorFlow with the appropriate compiler flags.
60000 train samples
10000 test samples
Model: "sequential"
_________________________________________________________________
Layer (type)                 Output Shape              Param #
=================================================================
drop0 (DropoutNoScale)       (None, 784)               0
_________________________________________________________________
dense1 (BinaryDense1)        (None, 512)               401920
_________________________________________________________________
act1 (Activation)            (None, 512)               0
_________________________________________________________________
drop1 (DropoutNoScale)       (None, 512)               0
_________________________________________________________________
dense2 (BinaryDense2)        (None, 512)               262656
_________________________________________________________________
act2 (Activation)            (None, 512)               0
_________________________________________________________________
drop2 (DropoutNoScale)       (None, 512)               0
_________________________________________________________________
dense3 (BinaryDense3)        (None, 512)               262656
_________________________________________________________________
act3 (Activation)            (None, 512)               0
_________________________________________________________________
drop3 (DropoutNoScale)       (None, 512)               0
_________________________________________________________________
dense (BinaryDense)          (None, 10)                5130
=================================================================
Total params: 932,362
Trainable params: 930,816
Non-trainable params: 1,546
_________________________________________________________________
Epoch 1/200
469/469 [==============================] - 8s 17ms/step - loss: 2.2819 - acc: 0.6424 - val_loss: 1.3373 - val_acc: 0.8404
Epoch 2/200
469/469 [==============================] - 8s 17ms/step - loss: 1.1534 - acc: 0.7312 - val_loss: 1.1362 - val_acc: 0.8420
…
