…
2022-01-11 23:04:21.674458: I tensorflow/core/platform/cpu_feature_guard.cc:142] This TensorFlow binary is optimized with oneAPI Deep Neural Network Library (oneDNN)to use the following CPU instructions in performance-critical operations:  AVX AVX2
To enable them in other operations, rebuild TensorFlow with the appropriate compiler flags.
60000 train samples
10000 test samples
Model: "sequential"
_________________________________________________________________
Layer (type)                 Output Shape              Param #
=================================================================
drop0 (DropoutNoScale)       (None, 784)               0
_________________________________________________________________
dense1 (BinaryDense1)        (None, 512)               401920
_________________________________________________________________
act1 (Activation)            (None, 512)               0
_________________________________________________________________
drop1 (DropoutNoScale)       (None, 512)               0
_________________________________________________________________
dense2 (BinaryDense2)        (None, 512)               262656
_________________________________________________________________
act2 (Activation)            (None, 512)               0
_________________________________________________________________
drop2 (DropoutNoScale)       (None, 512)               0
_________________________________________________________________
dense3 (BinaryDense3)        (None, 512)               262656
_________________________________________________________________
act3 (Activation)            (None, 512)               0
_________________________________________________________________
drop3 (DropoutNoScale)       (None, 512)               0
_________________________________________________________________
dense (BinaryDense)          (None, 10)                5130
=================================================================
Total params: 932,362
Trainable params: 930,816
Non-trainable params: 1,546
_________________________________________________________________
Epoch 1/200
469/469 [==============================] - 13s 28ms/step - loss: 0.4517 - acc: 0.9305 - val_loss: 0.4261 - val_acc: 0.9672
Epoch 2/200
469/469 [==============================] - 12s 25ms/step - loss: 0.3350 - acc: 0.9423 - val_loss: 0.3610 - val_acc: 0.9695
…
